save_model/best_lenet.pth (torch, 772267 bytes, 10 tensors)

conv.0.weight f4 [32, 1, 5, 5]
000000 84 34 a8 bd 94 52 44 be a0 51 3a 3d e9 b8 2a be
       -0.082131416 -0.19172126 0.045488 -0.166721
000010 fa 9c 03 3e 91 b8 41 be 06 f3 09 be 8b e8 d6 3c
       0.1285285 -0.18918063 -0.13471612 0.026233932
000020 40 c5 0a 3e f2 ee 36 be 5f 37 2a 3d 77 33 30 3c
       0.13551807 -0.17864588 0.041556712 0.010754458
000030 5c 83 02 3e 8c 66 37 3e 15 1f e7 3d 94 e7 9c bd
       0.12745422 0.17910212 0.11285225 -0.076613575
000040 b9 ab 4e 3e 56 85 bd 3d 5e db 91 3d be 4e 0b 3e
       0.20182694 0.092539474 0.07121919 0.13604257
000050 f7 5f d3 3d 2f 28 0a bd 81 d8 23 3d 1b 63 70 be
       0.10321038 -0.03372973 0.040001396 -0.23475306
000060 5f ef a6 3d ef c1 ac 3e 6c 41 59 3e 2e ef e6 bd
       0.08151125 0.3374171 0.21216363 -0.11276089
000070 2e 4f 41 be 6c 73 39 be e7 50 b2 3e f2 e6 06 3c
       -0.18877861 -0.18110436 0.3482735 0.008233773
000080 1a a9 9e be 33 d9 1e be 7e ad 2f be 6b 3c c9 3d
       -0.3098839 -0.15512542 -0.17156026 0.09825977
000090 df f8 87 bd d6 86 9e be 4a 73 ab bd 3c 64 9f bd
       -0.06639265 -0.30962247 -0.08371599 -0.0778279
0000a0 76 63 ce 3d 34 dc 9f be fb 61 84 be d9 03 c6 bd
       0.100775644 -0.3122269 -0.25856003 -0.09668703
0000b0 cc c8 f3 bd c5 6e a6 3c 2a ce 51 bd bd 25 85 3b
       -0.11903533 0.02031649 -0.051222004 0.0040633366
0000c0 3a 85 1c bd 2c 0a fd 3d 3e 4b 8c be 57 f2 26 be
       -0.038212992 0.12355456 -0.27401155 -0.16303383
0000d0 7f d7 81 3d 9f f6 8f 3e 13 9c 60 be e4 46 17 be
       0.06339931 0.28117844 -0.21934538 -0.14773136
0000e0 fa 1b 8b be fd cc 91 3e f5 1c 86 3e cc 23 d7 3c
       -0.27169782 0.28476706 0.26193967 0.026262186
0000f0 26 0e 49 3d d6 f5 47 be 51 e5 e4 3c 59 94 66 3e
       0.04908576 -0.19527373 0.027941378 0.22517528
000100 4a ce 5a be 07 2f 14 3c 06 76 2c be 49 c0 2c 3e
       -0.21367756 0.009044415 -0.16841897 0.16870226
000110 73 f4 86 bd f1 12 61 bd dc c7 c8 bd d2 b5 2c bd
       -0.06589594 -0.054949705 -0.09803745 -0.042165585
000120 19 c6 f1 3d c2 ec db 3c 2b 4a 2b bd 76 2a 2b be
       0.11805362 0.026846293 -0.04181878 -0.16715416
000130 11 61 41 be c7 36 5e be 95 f5 76 3e 33 5d 71 3e
       -0.18884684 -0.21700583 0.2411712 0.23570709
000140 78 4b 39 bc ff 6c 05 be 3d 93 98 be 88 9f 26 3e
       -0.011309497 -0.1302986 -0.29799834 0.16271794
000150 b3 c2 55 3e 39 02 06 bd c6 fd 1e be cb e1 4e be
       0.20875053 -0.032716963 -0.15526494 -0.2020332
000160 89 fa 64 3d a8 ce 2d 3e d1 23 e8 3d f7 2c 3d be
       0.05590299 0.16973364 0.113349564 -0.18474184
000170 49 59 ae 3d e7 53 8b bd 43 7d 52 3e 74 d5 ab bb
       0.085131235 -0.068031125 0.20555596 -0.0052439515
000180 b8 ae bc bc 49 0c 8b bd 52 b0 44 3d fa de 27 bd
       -0.023032531 -0.067894526 0.048019715 -0.04098413
000190 14 48 5e be 10 b1 29 be 76 87 6d bd a6 38 78 be
       -0.21707183 -0.1657145 -0.057990514 -0.2424036
0001a0 69 d5 df b9 ca 95 3e 3e fb ad 3b bd bc f9 36 be
       -0.00042692877 0.18611827 -0.045820218 -0.17868704
0001b0 42 a2 f0 bd 51 0b 21 be 4d 13 65 3e ae af f9 3c
       -0.11749698 -0.15726973 0.22370644 0.030479278
0001c0 9c 14 8f bc e6 d0 24 3e 55 25 90 3e a8 a2 26 3e
       -0.017465882 0.16095313 0.28153482 0.16272986
0001d0 66 f6 83 3d 85 d2 49 3e 22 60 36 3b ac d5 db 3d
       0.06443481 0.19709213 0.0027828296 0.10734114
0001e0 f4 48 0c be e0 11 1e 3e 56 b8 e0 bc 7a d1 53 be
       -0.13699704 0.15436506 -0.027431648 -0.20685378
0001f0 97 77 89 be 6a 23 35 3e 28 95 1a bd ee 28 29 bd
       -0.26849052 0.1768929 -0.037739903 -0.0412988
000200 dd 00 6f bd f7 7d 16 be f8 8a 4e 3d e2 e4 7a 3e
       -0.058350433 -0.1469649 0.0504255 0.24501374
000210 14 71 b7 3d 51 11 5e 3e d8 89 1b 3d 6d 07 f5 3c
       0.08957115 0.21686293 0.037973255 0.029910767
000220 ca 7e 32 3e ef 76 81 3d 8a 63 f6 3d 77 0c 02 3e
       0.17431179 0.06321513 0.12030704 0.12700067
000230 06 45 af bc 79 7b 40 bd 73 b7 50 3e 14 c5 b4 3d
       -0.021395218 -0.046992753 0.2038248 0.08826652
000240 4c 5b 60 3e 3b c1 ce be 63 5c b8 be 36 a4 ef be
       0.21909827 -0.40381798 -0.36007985 -0.4680497
000250 d1 e3 a7 be fa 51 82 be 08 5f 69 be 61 81 47 bd
       -0.32790998 -0.25453168 -0.22790158 -0.04870737
000260 08 30 d9 bd ba 7c 68 3e f5 23 9d 3e 86 7c ba be
       -0.10604864 0.2270383 0.30691496 -0.3642313
000270 b8 84 dc bd eb 96 7e be f9 c3 90 be 30 1a f4 bd
       -0.107675016 -0.24862258 -0.28274515 -0.11919057
000280 25 92 07 be 0b 61 9d be 4e ba 6e be 55 df 28 be
       -0.13239343 -0.307381 -0.23313257 -0.16491444
000290 33 e2 53 be 8d 07 67 3d ed 1c b4 bd 5b df 32 be
       -0.20691757 0.056403685 -0.0879458 -0.17468016
0002a0 43 6f 80 be 17 8a 48 be ca f0 ac 3e 39 01 2f bd
       -0.25084886 -0.19583927 0.33777457 -0.042725775
0002b0 e9 2e bd bd f9 26 3f be ef 6e b7 be 6e 45 fb bc
       -0.09237463 -0.1866721 -0.35826823 -0.030672755
0002c0 fd 27 fc bb 45 c1 28 3e f5 b6 0d 3e 8d 4c 4e 3e
       -0.0076951967 0.16479976 0.13839324 0.2014639
0002d0 eb f2 fd bd 4f 76 94 bd a6 10 86 3d 2f 9d 20 3d
       -0.123998486 -0.07249128 0.06546144 0.039212402
0002e0 4f 5d 5e 3e 62 a2 6a bc 02 9b be bd 57 bd 44 be
       0.21715282 -0.014320942 -0.09306909 -0.19212852
0002f0 b0 4e 48 bd 31 ea e5 3d a3 5d 10 3d 4d d4 56 3d
       -0.048903167 0.11226309 0.03524555 0.05244856
000300 1b 58 8d be 36 1c 75 3d 48 aa 34 3e 73 d1 a8 be
       -0.27606282 0.059841357 0.17643082 -0.32972297
000310 78 17 31 be 33 b9 cd bd 45 d8 4c 3c bd 0d 9e 3d
       -0.17294109 -0.100450896 0.012502735 0.07717464
000320 30 60 e5 bc b8 a0 09 bd 78 2e 1d be 22 26 07 be
       -0.027999967 -0.03360054 -0.15349758 -0.1319814
000330 dd 7b 03 3d 5f 39 f9 bb 1d 6e 5d 3e 97 12 0e 3e
       0.032100547 -0.007605716 0.21624036 0.13874279
000340 fd cf bb be 53 6e 1b bd cd d5 1c 3c d0 5c 82 3e
       -0.3668212 -0.03794701 0.009572458 0.25461435
000350 d8 45 4c bd a7 41 84 be b3 24 a7 be 2a 92 7c be
       -0.049871296 -0.2583134 -0.32645187 -0.24665132
000360 c8 2d 09 3d 25 75 88 3e 30 dc 3a 3e 34 f8 c4 3b
       0.033490926 0.26651874 0.18248057 0.0060110334
000370 50 fb 02 be b8 6b 22 3e 2d f8 24 3e f3 b3 3b 3d
       -0.1279118 0.15861404 0.16110297 0.04582591
000380 a6 ab 1d 3d fc 36 74 3e 3b 5a a1 be e0 c3 57 be
       0.038493775 0.238491 -0.31514153 -0.21070814
000390 09 81 09 be 27 29 53 3e d5 1a 66 be 9d a1 d5 bd
       -0.1342813 0.20621167 -0.22471173 -0.10431216
0003a0 89 98 1c be 4f 49 41 3e fa 73 85 3e 46 2d 33 be
       -0.15292563 0.18875621 0.26065046 -0.17497739
0003b0 a1 6b 79 be ec 44 08 bd f8 48 8d bc 8c 0b 1e 3d
       -0.24357463 -0.033268854 -0.017246708 0.03858523
0003c0 7e d7 81 be a0 04 9a bd 4c 8b 4e 3e f2 69 66 3e
       -0.2535972 -0.075204134 0.20170325 0.22501352
0003d0 c9 9e 5b bc ac f9 2c be 86 b9 15 bd 4c cb 3b 3e
       -0.013404557 -0.16892117 -0.036553882 0.1833927
0003e0 6c c9 b9 bb 49 c8 23 bd e8 44 c5 3d 5e ee d9 bd
       -0.0056697633 -0.03998593 0.096322834 -0.10641168
0003f0 9a de 32 be 98 73 c0 be 82 19 cd bd 38 cc 30 3d
       -0.17467728 -0.3758819 -0.10014631 0.04316351

conv.0.bias f4 [32]
000000 82 f5 01 be 2d 42 ca bd 93 7a 12 be e7 92 ce bd
       -0.1269131 -0.09875903 -0.14304571 -0.10086613
000010 e4 26 21 3d 4c 28 1e 3d df de 25 3e 63 d7 62 bd
       0.03934373 0.03861265 0.161983 -0.05538119
000020 37 2d c9 3d d1 9c 4a be 73 9f 42 bd a4 cf a4 bd
       0.09823077 -0.19786383 -0.047515344 -0.08047417
000030 49 3f 48 bc 90 75 11 be bc 03 a7 3d a5 c3 69 bd
       -0.01222212 -0.14205003 0.08155009 -0.057071347
000040 5c 1d ec bc dc 5e d8 bc 82 59 9a bc a0 d0 55 3d
       -0.028822593 -0.02641242 -0.018841509 0.052200913
000050 24 0e 84 bd 3a 9f 1d 3e c3 1a 6e be 9f 91 24 bc
       -0.064480096 0.15392771 -0.23252396 -0.010044484
000060 f9 2c 64 3c f9 36 ff 3c b8 a8 1e 3d 54 6d 83 bc
       0.013926738 0.031154143 0.03873512 -0.016043343
000070 f4 ba 8e bd b0 3a 4e bd 1a 38 88 be 7f d4 70 bb
       -0.06969252 -0.050348938 -0.26605302 -0.0036747751

conv.3.weight f4 [64, 32, 5, 5]
000000 e2 7a fa bc 31 b5 c5 bc 59 f3 0b 3d e1 92 21 3c
       -0.030576173 -0.02413425 0.03416762 0.009861679
000010 c7 68 07 3d 1f bb 08 3d 6e 24 b9 3c 8d c7 10 bd
       0.033058908 0.033381578 0.022600379 -0.035346556
000020 61 ee 25 bd 9f 88 ff bc 1c e9 d8 3c 92 e6 02 ba
       -0.04051054 -0.031193076 0.026478343 -0.0004993464
000030 22 28 68 bd 4d 87 28 bd ad 76 66 bd 4b 7b ac ba
       -0.0566789 -0.041144658 -0.05626552 -0.0013159303
000040 96 7f 02 3d 55 45 81 3c 6a 46 fc 3b 4a d2 a9 bb
       0.031859957 0.01578013 0.0076988237 -0.005182539
000050 d4 29 b2 bd a8 70 f7 bb 05 93 c8 3c 12 ff 3f 3d
       -0.08699384 -0.0075512715 0.024484167 0.046874113
000060 7d 1f 88 3c 5c 78 c8 3d 2c 54 27 bd 9a e5 26 3d
       0.016616577 0.09788582 -0.040851757 0.04074631
000070 14 6c 05 3e b3 12 a1 3d 6d 22 9f 3c c8 d9 5d 3d
       0.1302951 0.07864895 0.019425595 0.05416277
000080 3b 29 ac 3d 19 79 7f 3d 12 0e 2a 3d 87 f8 28 bd
       0.084063016 0.062371347 0.041517325 -0.04125264
000090 37 1e e0 3c 2a 81 68 3d d0 3e 58 38 46 07 0d bd
       0.027358158 0.056763805 5.155691e-05 -0.034430765
0000a0 52 c6 91 bd 08 cd af bd 78 d5 fb bd 13 81 03 be
       -0.07117905 -0.085840285 -0.12296575 -0.12842207
0000b0 6e 8e 0b bd 02 b7 a9 bc 57 db a0 bd b4 48 df bd
       -0.03407138 -0.020717148 -0.07854336 -0.10902539
0000c0 1a 16 11 be 1f e9 49 bd 1e 31 50 bd 27 9d 6c 3d
       -0.14168587 -0.049294587 -0.05082809 0.05776706
0000d0 76 16 b5 3d 6e 39 c8 3d d9 28 9f 3d 9e ea 0c bd
       0.08842175 0.09776579 0.07771463 -0.034403436
0000e0 a5 14 5c 3d 15 8c c1 3d 6f 62 57 3d 4d 14 42 3d
       0.053730626 0.09450547 0.052584108 0.04738264
0000f0 bc 45 88 bb 97 72 6e bb af a1 96 3d 43 d7 50 3d
       -0.0041587036 -0.003638422 0.073550574 0.05098654
000100 22 3f c9 3b e3 ba 12 bd 71 ac 16 3d 37 1d 24 bc
       0.006141559 -0.03582276 0.036785547 -0.010016731
000110 7a 78 14 3b 73 75 b0 3c 90 1d 31 bd 70 ec c5 3c
       0.0022654817 0.02154038 -0.043241084 0.024160594
000120 02 38 2e 3d ab 88 98 3c 52 e4 8d 3c e2 ca 75 bd
       0.042533882 0.018619856 0.017320786 -0.060007937
000130 d8 e0 0d 3d d6 97 46 3d d8 7b 4c 3d fe 2e 6a 3d
       0.034638256 0.048484646 0.049922794 0.05717372
000140 5d 6e 1a bd 84 e9 17 3d c4 3d 49 3d 4f 80 1a 3c
       -0.037702907 0.037087932 0.04913117 0.009430005
000150 0e 74 5d 3d 2f c7 3f bd fd 05 05 bd f6 7b 09 39
       0.054065756 -0.046820816 -0.032476414 0.00013111517
000160 4f 5a fa 3c 86 bd 12 bc 03 da e0 bb 91 05 1d bc
       0.03056064 -0.008956319 -0.0068619265 -0.009583847
000170 42 99 82 bd 6e 4c ff bb de 89 31 bd a7 1f 8b 3b
       -0.06376888 -0.0077910936 -0.04334437 0.0042457166
000180 d8 d3 90 3d 70 af 90 3b f7 ac 1e bd b2 24 21 bd
       0.07071656 0.004415445 -0.03873917 -0.039341636
000190 52 72 02 bc 16 16 c2 bc 39 4e 4e bd 12 51 27 bb
       -0.007961826 -0.023692172 -0.050367568 -0.00255305
0001a0 21 7d 03 bd 68 d5 70 3d 02 e4 17 3d ea 7d 80 bd
       -0.032101754 0.05879727 0.03708268 -0.06274016
0001b0 92 f9 0a 3c a7 d8 3d 3d 9e 69 a0 3c a3 af dd 3b
       0.008482354 0.046349194 0.019581612 0.0067653223
0001c0 98 1d b7 bb 02 0c 1b bd b2 25 48 bd 2b 21 30 bd
       -0.0055882446 -0.03785325 -0.048864074 -0.04300038
0001d0 b9 1b 05 bd b6 b1 91 3d 27 b1 05 3d c8 23 e3 3b
       -0.03249714 0.07113974 0.03263965 0.0069317557
0001e0 26 2b a2 bd 52 94 ba bd 67 fd 09 bc 03 56 be 3c
       -0.07918386 -0.09110321 -0.008422232 0.023234373
0001f0 88 c6 04 3d 3f d1 84 bd 19 fe 2c bd 48 e8 9d 3c
       0.032415897 -0.06485223 -0.042234514 0.0192758
000200 96 17 0d bc 81 23 02 3d c5 9d 8d bd 9c d0 8c bd
       -0.00861158 0.03177214 -0.06914858 -0.068757266
000210 53 c5 90 3c 87 a5 b9 bb ac 64 27 3d 7a 2e ce 3b
       0.017672217 -0.0056654844 0.040867493 0.0062921615
000220 c0 97 2c bd c7 3b 08 be 1e 05 93 bd 32 89 57 bc
       -0.042136908 -0.13304053 -0.071787104 -0.0131552685
000230 49 84 6b 3d d1 df 7f 3c dc de 4c 3d d7 51 1f bd
       0.057499204 0.015617327 0.050017223 -0.038896408
000240 49 24 b4 bd 56 0e 8d bd 7e c5 ea 3c 58 ee 26 3d
       -0.08795983 -0.068875 0.028658625 0.040754646
000250 8d 65 b1 3c 91 4d 90 bb 44 60 73 bd f9 20 ab bd
       0.021654868 -0.004403778 -0.059417978 -0.083558984
000260 97 83 5b be e8 55 ff bd 10 b5 4b bd 09 22 3b bd
       -0.21436916 -0.12467557 -0.04973322 -0.045686755
000270 7e f5 84 bd 52 1a b3 bd 59 e7 2e bd c0 56 67 bd
       -0.064921364 -0.087452546 -0.0427011 -0.056479216
000280 e5 44 03 bd 94 1f 8c bd 81 5b 5c 3d f8 06 85 3c
       -0.032048125 -0.068419605 0.053798202 0.016238675
000290 df 56 9d 3c 38 86 01 3d 07 4c 43 3c 14 dd fd 3c
       0.019206462 0.03162214 0.011919982 0.030989207
0002a0 98 72 66 ba 06 c3 5a bb 81 ba fc 3a 0d 34 ce 3d
       -0.00087908795 -0.0033380403 0.0019281657 0.10068522
0002b0 e6 7c 42 3d 30 90 06 bd 7c 2c 2d bd 41 b5 c7 bc
       0.047482394 -0.03285235 -0.04227875 -0.02437842
0002c0 bd 8c 14 bd dd 8d e3 3c 74 65 94 3b e6 d6 e4 39
       -0.03626703 0.027777607 0.0045286957 0.0004364766
0002d0 d7 fe c8 bd 56 77 d8 bc db 14 22 bd da 3b ca bb
       -0.09814232 -0.026424091 -0.03957067 -0.0061716856
0002e0 88 28 3f bd 47 2b ee 3b 03 81 6e bd 83 b9 cd bc
       -0.046669513 0.0072683427 -0.058228504 -0.025112873
0002f0 ad 98 79 bc 9c 9b f8 bb 21 1c 9e 3c de 89 97 3c
       -0.015234155 -0.0075869095 0.019300522 0.018498357
000300 8e 27 6d bd ff 53 6e bd 20 b6 c0 bc e8 17 33 bb
       -0.05789905 -0.058185574 -0.023524344 -0.0027327482
000310 73 aa 13 3d e3 c1 a5 3b b8 8d 93 bc 3f 11 11 bd
       0.036051225 0.0050585135 -0.018011913 -0.035416838
000320 e5 83 c9 bc 03 2f a6 bc da 24 46 bc e3 f7 5d 3c
       -0.024599025 -0.020286089 -0.012093747 0.01354787
000330 5c 8d bc 3c 0a 49 6f 3d be ac 8e bb 12 74 7d bc
       0.023016624 0.058419265 -0.0043540886 -0.015469568
000340 11 48 08 3d 8a 32 63 3d 7f 0a c7 3c 87 68 85 3d
       0.033271853 0.05546812 0.024296997 0.06514078
000350 c1 38 3e 3c 0b 33 8f bd ca 11 72 3c 8f 4c 11 bc
       0.011610211 -0.069921575 0.014774749 -0.008868351
000360 e5 f9 2f 3d 78 ff 4a 3d d2 34 81 3d 98 87 15 3d
       0.042962927 0.04956004 0.06308903 0.036506265
000370 95 66 dc 3b d7 a4 bc bc 32 7b 03 bd 48 d3 90 3c
       0.006726096 -0.02302782 -0.03209991 0.017678872
000380 ed 9e a5 3d d4 b5 e2 bc 0a e4 d2 3c c6 66 ae 3d
       0.08086953 -0.027674593 0.025743503 0.08515696
000390 3e 57 aa 3d 7f 02 76 3d ff 05 88 bd c8 0a 29 3d
       0.083174214 0.060060974 -0.06641769 0.041270047
0003a0 2c d5 be 3c 4a 02 80 3d 6f ad a5 3d a1 5f 10 bd
       0.023295008 0.062504366 0.080897205 -0.03524745
0003b0 11 24 37 bc 2c 9b 1d 3b af 33 5f bd 55 6e 22 bd
       -0.0111780325 0.0024048788 -0.05449265 -0.039656002
0003c0 83 02 8d bb 35 db cb ba 6d ff ad bd a6 da e0 bd
       -0.004303278 -0.0015553 -0.08495984 -0.10979204
0003d0 46 b9 76 bd 4b 3d 8c 3b 31 27 9f 3c b8 33 8a bd
       -0.060235284 0.0042797676 0.019427868 -0.06748146
0003e0 c6 ea 02 be cc b6 db bd a7 83 fa 3b 0a 1f 77 3d
       -0.12784871 -0.10728225 0.0076450887 0.060332336
0003f0 ac 06 e9 3c ac 73 ee 3c a7 0c fa 3d 12 51 ef 3c
       0.028445564 0.029107891 0.122094445 0.029213462

conv.3.bias f4 [64]
000000 2c 36 9b 3c 8d 2b 9c bc b3 d8 69 3c 7f a4 14 bc
       0.01894673 -0.019063735 0.0142728565 -0.009072422
000010 a3 1c 04 3c fe 91 9a 3c 67 c7 82 bb ac b1 54 bc
       0.008063468 0.018868443 -0.003991056 -0.012981813
000020 10 af 6d bc 94 d4 82 ba 64 d5 15 bb cd 85 ca bc
       -0.01450707 -0.0009981566 -0.0022862786 -0.024722004
000030 dc 6f b1 bc b0 53 8f bc fb 08 89 3c 1f f0 25 bc
       -0.021659784 -0.01749596 0.016727915 -0.01012805
000040 e9 42 88 bc af d5 de b9 5f 56 6b 3b 49 b8 07 3c
       -0.016633468 -0.00042502346 0.0035909635 0.008283683
000050 f0 40 d9 3b 95 b9 44 bb d2 b8 be bc cc 0c fb bb
       0.0066300556 -0.0030017842 -0.023281489 -0.0076614376
000060 9c 33 9a bb 46 0a ae bc e2 78 a6 3c 34 09 99 3c
       -0.0047058593 -0.021245133 0.020321313 0.018681146
000070 88 0b f6 bc d5 42 42 3b 47 8a 48 bb d2 25 7c bc
       -0.030034795 0.0029641886 -0.0030599998 -0.015389876
000080 42 22 fa bc 16 df 0b bd de 6f 72 3b 12 7f 84 bc
       -0.030533914 -0.0341483 0.0036992948 -0.016173873
000090 51 55 29 bd 2a ca bc bb 94 b4 dc bc 34 ab bb bc
       -0.04134113 -0.0057614045 -0.026941575 -0.022908784
0000a0 df 1e 10 bd c7 6e af bc 8a 57 3d bd fd 00 52 bc
       -0.03518569 -0.021415127 -0.046226062 -0.012817618
0000b0 ad 11 62 3c d3 7d d7 bc 63 d0 2e bd ed 9a 4b bc
       0.01379816 -0.026305115 -0.0426792 -0.012427074
0000c0 2a ca 01 bd e2 74 3b ba 32 74 89 bc d8 55 9d 3c
       -0.03168694 -0.0007150901 -0.016779039 0.019205973
0000d0 aa 95 91 bb b7 b7 88 3b b8 84 c1 bc e1 ac 10 bc
       -0.00444289 0.004172291 -0.023622856 -0.00883028
0000e0 38 79 2f bd 2c 67 cf bc e1 92 01 bb 25 02 77 3b
       -0.042840213 -0.02531775 -0.0019771385 0.0037690487
0000f0 a0 ef ef bc 1a d5 b9 bc 16 48 82 3b 40 0b ef bc
       -0.029289067 -0.022684623 0.0039758785 -0.02918017

fc.0.weight f4 [128, 1024]
000000 21 44 2c 3c 4a fd b7 bc 53 25 a6 ba 5b 34 8a 3c
       0.01051429 -0.022459645 -0.0012675918 0.016870668
000010 2f df 21 3b ed 2c 19 bd a8 b7 f3 bc 01 75 9f 3c
       0.0024699678 -0.03739636 -0.02975066 0.019464971
000020 70 54 ae 3b 13 6e e0 bb 40 17 5d bc f2 ec 9b bc
       0.0053201243 -0.0068490594 -0.013494313 -0.019033883
000030 b0 86 d0 bc 8c 2c 07 bd 14 dc b6 3c 42 29 f0 3b
       -0.025454849 -0.033001468 0.022321738 0.007329137
000040 c5 83 1d 3c 6b da d1 bc 04 09 61 bb 2d 49 b9 3c
       0.009613936 -0.025616845 -0.003433765 0.0226179
000050 aa 8a 91 3c 27 e8 9e 3c 40 33 68 39 49 4c e3 bc
       0.017766315 0.019397808 0.00022144336 -0.027746337
000060 34 1e c1 bc e1 fb bc bc 7b ca 0e bd d4 2a 01 3d
       -0.023573972 -0.023069324 -0.03486107 0.031534985
000070 5a 8c c1 3c e4 5b b5 bc f0 65 12 3d 1e 0e 70 3c
       0.023626495 -0.022138543 0.035741746 0.014651803
000080 89 c1 ca bb 52 ff f9 bb 0f e6 82 3c 4e 9f 15 bd
       -0.006187622 -0.0076293135 0.015978841 -0.036528878
000090 3c e8 39 3c 8c bf 83 bc 1f a9 f9 3b 28 50 1b bd
       0.011346873 -0.016082548 0.0076190378 -0.03791824
0000a0 5e fa 08 bc 37 3f 2b 3c 3b 11 4c bc 1d 48 1c 3c
       -0.008360473 0.010452083 -0.01245528 0.0095386775
0000b0 09 ae fe 3a 7c fc 63 3b dc 59 71 bc 66 e5 0e bd
       0.0019430529 0.0034787944 -0.014730897 -0.03488674
0000c0 b9 b9 e9 3b 1d 1f a9 3c 00 28 5c 3c 63 45 a9 bb
       0.0071327356 0.020644719 0.013437271 -0.0051657422
0000d0 b6 25 ba bc 7f 29 a5 3c 16 df e8 bc 61 66 57 3c
       -0.02272306 0.020161388 -0.028426688 0.013146968
0000e0 e5 be 00 bc 1e 6a ad ba da d0 5f 3a 98 6a 4e 3c
       -0.007858013 -0.0013230478 0.0008537896 0.012598656
0000f0 a3 5b 3e bc ed 0b 8a 3c 0d cc a5 bc 4a 74 18 bc
       -0.011618528 0.01685139 -0.0202389 -0.009305069
000100 80 49 dc 3c 1b 6e 5e 3b b2 df 88 3c 0f 3a 09 3c
       0.026890516 0.003394014 0.016708229 0.008375659
000110 41 f2 b9 3c e5 c0 b7 3c aa 5b 85 bc ec 22 0f bd
       0.022698523 0.022430846 -0.01627906 -0.034945413
000120 5a fe ba bc 71 de 7a 39 3a 76 3d 3c cd a1 03 3b
       -0.022826362 0.00023924724 0.011563832 0.0020085454
000130 31 07 56 3c 30 44 9d bb 58 47 42 3b f0 7c 85 bc
       0.013063238 -0.0047993883 0.0029644575 -0.016294926
000140 eb 12 d7 bb a7 6e 60 bc ef c7 04 bb 02 43 43 3c
       -0.0065635345 -0.013698257 -0.0020260771 0.011917831
000150 be 30 f2 bc 10 dc 18 3c 19 37 bc bc 76 e0 14 bd
       -0.029564258 0.009329811 -0.022975491 -0.036346875
000160 31 5f 91 bb 88 cc 08 3b df 69 4d bc 6f e2 3c bc
       -0.0044363965 0.0020873863 -0.012537449 -0.011528595
000170 d4 f0 61 3c ff d1 d4 3b af 7e 1e bc 0e d9 3a 3c
       0.013790328 0.00649476 -0.009673758 0.011404289
000180 a1 2d c9 bb 4e 7b 00 3c ad 27 41 bc ce 41 8e 3c
       -0.0061394726 0.007841898 -0.011789245 0.017365362
000190 bf 9f da bb d6 85 9e 3c ef 5b 00 bd 37 15 8c bc
       -0.0066718752 0.019350927 -0.031337675 -0.01709996
0001a0 4f 24 80 bc d7 75 0c bd b3 39 56 3b 96 15 62 3c
       -0.015642313 -0.03429207 0.00326882 0.013799092
0001b0 4c 5a fe 3c 3b f4 d5 bc 92 76 95 bc 90 e9 0d 3d
       0.031048916 -0.026117435 -0.018245015 0.03464657
0001c0 9d 53 0d bc 3d 52 12 3c e2 63 90 bc a3 89 8c bb
       -0.008625892 0.00893074 -0.017625753 -0.0042888685
0001d0 37 73 11 bd c9 0a 16 bd 3f 12 a2 bc ac 6c e9 bb
       -0.035510268 -0.03663138 -0.019784091 -0.0071235504
0001e0 29 df c5 bb f4 5a 60 bb 85 d0 f9 bc 29 65 7c 3c
       -0.0060385657 -0.00342339 -0.030494938 0.015404978
0001f0 69 41 0e bd d4 71 ae 3c b5 07 fd bc 69 46 92 3a
       -0.03473035 0.021294512 -0.030887464 0.00111599
000200 a7 9b ba bb 68 64 2d 3c de b3 16 3b d0 a7 0d bc
       -0.0056948247 0.010583021 0.0022995393 -0.008645967
000210 ab e4 37 ba 34 f8 b5 bb 73 bf 5a 3c 41 73 8e 3c
       -0.000701497 -0.0055532698 0.013351309 0.017388942
000220 c2 80 b3 3c 71 f2 fd bc 07 ad 07 bd d8 eb 07 bd
       0.021911982 -0.030999394 -0.033123996 -0.033183903
000230 5f 81 b4 bc 3f 16 31 3c b6 74 90 bc 49 3f 93 3c
       -0.022034345 0.010808527 -0.017633777 0.017974513
000240 63 f7 92 3c 5e 25 69 3c 1d d8 93 bc ae a5 07 bd
       0.017940229 0.0142301 -0.018047387 -0.03311699
000250 e6 e7 92 bc 6f c4 13 bc 4b 92 64 bc 34 35 10 3c
       -0.017932843 -0.009019001 -0.013950895 0.008801747
000260 e5 75 a2 bc 29 e9 0d bd ce fb 85 bc 77 6f fb 3b
       -0.019831607 -0.034646187 -0.016355421 0.0076731998
000270 e5 d5 2c 3c 1b fb c8 bc 58 02 0e bd 77 b2 37 bd
       0.010549043 -0.024533799 -0.034670204 -0.04484793
000280 8f f6 6b bc 68 ad 6e bc 4e ed d5 3c 70 da 84 bc
       -0.014402046 -0.01456771 0.026114132 -0.01621744
000290 e4 24 42 3c fc 8c e1 3b 3d 18 02 bb e4 e6 eb bc
       0.011849616 0.0068832617 -0.0019850873 -0.02879662
0002a0 44 d3 cf 3a e7 70 5d bc b3 6a f9 bc 41 20 c4 bb
       0.0015855809 -0.013515688 -0.030446386 -0.0059852903
0002b0 b3 e6 b1 bb 3e 98 fd 3b 5c ac 1d bd f4 5b 9a 3c
       -0.005429113 0.007739096 -0.038494453 0.018842675
0002c0 8a ec 79 3c 7d 39 23 bd d5 c8 97 bd 91 43 28 bd
       0.015254149 -0.039849747 -0.074113525 -0.04108006
0002d0 8a 2b fe 3c b0 16 05 bc 2b 70 6b 3c 20 25 99 bc
       0.03102662 -0.008123085 0.014370005 -0.01869446
0002e0 74 84 56 3c 0c 41 ec 3c f4 04 9e bc f6 39 34 bd
       0.013093103 0.02883961 -0.019289471 -0.04400059
0002f0 dd 5a ba bc 90 0a 13 bc 54 0c ce bc 14 0a 54 bd
       -0.022748405 -0.008974686 -0.025152363 -0.051767424
000300 2b 45 c2 bc 25 37 4b 3c 4e 7b 42 3c c5 d0 04 bd
       -0.023714622 0.012403284 0.011870218 -0.03242566
000310 84 9a 06 bd fb b5 3e 3c 47 17 19 bc a8 05 04 bc
       -0.0328622 0.011640067 -0.009343929 -0.008057989
000320 79 b2 b4 3b 3d 81 ad 3c a3 8d d2 bc 63 21 e3 bc
       0.0055144397 0.02117979 -0.025702303 -0.027725881
000330 fc e0 0b b8 db 2e 0d 3c 53 7a 0d bd 96 90 9a bc
       -3.3349716e-05 0.008617128 -0.034540486 -0.018867772
000340 ff 22 03 bd 3b 4b 06 bd bf 77 47 bc bc 9a 51 bc
       -0.032015797 -0.03278659 -0.012174546 -0.012793239
000350 c7 89 bb bb 7f 1c e6 bc 23 c0 07 bd c9 3b 85 bb
       -0.0057232114 -0.02808976 -0.03314222 -0.004065965
000360 f0 ff e2 3c a7 d7 b2 bc d1 63 01 3c 65 42 0f bc
       0.027709931 -0.021831347 0.007897333 -0.008743857
000370 8a c4 a6 3b 18 dd 97 3a dd d5 09 bd 49 0b c2 bc
       0.0050893473 0.0011586277 -0.03365122 -0.023687022
000380 87 94 be 3c 1e df b8 bc ff 40 ad 3c 5f f0 bd bc
       0.023264183 -0.022567328 0.021149157 -0.023185907
000390 3c ef bd bc cb 54 15 bd 29 40 95 ba b7 c2 c6 bc
       -0.023185365 -0.036457818 -0.0011386919 -0.02426277
0003a0 51 30 22 3b 8b c9 43 3c 00 1e 04 bc 15 69 a9 3c
       0.0024748037 0.011949907 -0.008063793 0.02067999
0003b0 74 87 bf 3b 3f 68 51 3c 35 6f 8c bc 96 58 ed bb
       0.0058450047 0.012781202 -0.017142871 -0.0072432263
0003c0 38 8e 61 bc 4a f0 fe 3c 41 0f b8 bc 13 5f 10 b9
       -0.013766818 0.031120438 -0.022468211 -0.00013768328
0003d0 65 92 60 3a e0 fa de bc d3 fa 1c bd 62 c1 81 bb
       0.00085667364 -0.027219236 -0.038325142 -0.0039598206
0003e0 70 6d a3 bc 84 f5 3e 3c da 7f da 3c 1b 43 55 bc
       -0.019949645 0.011655215 0.026672293 -0.0130164875
0003f0 d6 b5 8b 3c f4 b3 8e 3c 28 19 21 bc da a5 85 3b
       0.01705448 0.017419793 -0.009832658 0.004078609

fc.0.bias f4 [128]
000000 db 2c 5b 3c ec bc 23 3c c5 5f d7 3c 1a f0 92 3b
       0.013377394 0.009993773 0.026290784 0.0044841887
000010 e2 25 05 bc 06 ee c5 3c fc ca 46 bb 34 08 70 bc
       -0.008126708 0.02416135 -0.003033339 -0.014650393
000020 6d 5e b2 39 7e 70 89 bb ab 22 c4 bc e8 2e d6 3c
       0.00034021158 -0.0041943183 -0.023942312 0.026145414
000030 fe 85 d9 bc e0 de d3 3c 30 ef 53 3b 0e 72 00 bc
       -0.02655315 0.025863111 0.0032338612 -0.007839693
000040 0a 2a e1 bb 19 53 9b bb 83 bf 03 bd d5 ec 09 bd
       -0.0068714665 -0.0047401306 -0.03216506 -0.033673126
000050 31 9b e8 3c 69 0a ae 3b a5 3b e2 bc 74 99 9c bb
       0.028394314 0.0053112996 -0.027616331 -0.004779035
000060 50 91 ab bb 5c 37 90 3c 98 7b 82 3c d4 8c 45 3b
       -0.0052358285 0.017604522 0.015928075 0.0030143755
000070 84 c5 a6 37 fe 5a 50 bc 13 9f 90 bc 4d 5a 12 bc
       1.9880717e-05 -0.012717007 -0.017653977 -0.008932662
000080 93 89 67 bc 3b e9 9f 3c 67 ab a6 bc 7f 7a e2 3c
       -0.014131921 0.019520393 -0.020345403 0.027646301
000090 34 4f bc bc f9 f3 45 bc 0b f0 16 bc 79 ac 6f 3c
       -0.022986986 -0.012082093 -0.009212504 0.014628523
0000a0 3f 6f 80 3c 2b eb aa ba f2 8c 73 bc a2 35 e7 ba
       0.015678046 -0.0013040056 -0.014865147 -0.0017639885
0000b0 0e 2c 39 3c cb 0b 26 bc 2a 75 cb bc 05 92 a2 bc
       0.011302007 -0.010134648 -0.024836142 -0.019845018
0000c0 ce bb 8f bc 74 e9 9b 3c 72 14 8d 3c e6 76 72 bc
       -0.017545607 0.019032218 0.017221663 -0.014798855
0000d0 b1 d1 8a 3b 1d 8c ce 3b 6a a3 35 3b 09 86 f3 3b
       0.004236423 0.006303324 0.002771581 0.0074317497
0000e0 7d cf 7a 3c 75 ed e5 3c de 90 ac ba 4e a2 0a bd
       0.015308258 0.02806733 -0.0013165732 -0.033846192
0000f0 69 24 19 bd 6d 96 1a bd b2 e5 52 bc ca 56 dd 3b
       -0.03738824 -0.037741113 -0.012872146 0.006754731
000100 31 b7 03 bd 96 13 44 3c 55 8d 4d bc 09 09 98 3c
       -0.032157127 0.01196756 -0.012545903 0.018558996
000110 79 28 28 bc 85 7d 96 3b ae b3 0d bc 36 9d ca 3b
       -0.010263556 0.0045926 -0.008648796 0.006183292
000120 90 3d b0 bc 83 f3 74 bd 35 47 16 bd bc d1 2c 3c
       -0.02151373 -0.059802543 -0.036689002 0.010548051
000130 35 04 b0 ba e3 7e 1c bd 67 9d 31 bd 89 18 71 3b
       -0.0013428988 -0.038206946 -0.043363 0.0036788306
000140 07 25 40 bd 10 c3 1e bc bf e3 70 3c 8b c3 37 3c
       -0.046910312 -0.009690061 0.014702736 0.011216055
000150 fb 6a d0 3c b0 35 96 bc 77 77 cb bc fa 73 2f 3c
       0.025441637 -0.018336147 -0.024837239 0.010708803
000160 c7 86 6c 3c 93 3d 7e 3b cb 72 a2 3c 49 b7 fa 3c
       0.01443643 0.0038794025 0.019830128 0.030604975
000170 83 09 5d 3b 9e 9a 95 3c a8 28 07 3d 95 8f 09 bd
       0.0033727593 0.018262204 0.032997757 -0.033584196
000180 7f 65 07 bc ac 77 e1 3a 6d db 38 bc d9 26 aa 3c
       -0.008263945 0.0017201803 -0.011282784 0.020770477
000190 2f 3d 53 bc ef 59 7e bc 93 a6 44 3c 83 54 87 3a
       -0.012893005 -0.0155243715 0.012002605 0.0010324869
0001a0 a8 de 72 bc 57 28 59 3d 40 85 fb b5 bb 60 ea bb
       -0.014823593 0.053016987 -1.8739738e-06 -0.0071526445
0001b0 7a a7 3c 3d 69 b8 30 3c 98 c8 c1 bc 64 dd ef 39
       0.046058156 0.010786154 -0.02365522 0.0004575058
0001c0 5c 75 c3 bb b3 79 23 bd 49 ae 12 3b b3 22 9b bb
       -0.005964918 -0.039910983 0.0022381714 -0.004734361
0001d0 32 e6 1b bd f9 8e f7 bc d8 b3 1d bd fd 83 0b bd
       -0.03806133 -0.030219542 -0.03850159 -0.03406142
0001e0 e5 a5 0e 3c 25 e9 d9 3c c4 1d 90 bb a6 6d af 3b
       0.0087065445 0.02660043 -0.0043980796 0.0053536473
0001f0 44 a0 c0 bb 95 3e dc bb 86 1b 0a bc cb 14 d5 3b
       -0.00587848 -0.0067213275 -0.008429414 0.006502723

fc.3.weight f4 [64, 128]
000000 4d ae 64 3c 44 4a 60 bd f8 8b a3 bd c6 1e cf bd
       0.013957572 -0.054758325 -0.07985681 -0.101132914
000010 6d ab 3f bd aa ea a8 3b 99 a3 e9 bd c4 a4 91 bc
       -0.046794344 0.0051549273 -0.11408157 -0.017778762
000020 2b 6c bc bc 38 c9 19 3d 0b 0f 0b be 1f 71 a7 3d
       -0.023000797 0.037545413 -0.13579957 0.08175873
000030 fb 11 77 bd d5 43 82 3c 41 40 6a 3d 2d e2 ab 3c
       -0.060319882 0.015901485 0.057190184 0.020981872
000040 49 22 59 bc da 39 0b bc b7 e4 44 bd 31 a5 64 bd
       -0.013252803 -0.00849768 -0.048069682 -0.0558216
000050 75 6f 56 bd 10 93 5b 3d 77 c7 89 3d 0c 2d d9 bd
       -0.052352387 0.053607047 0.06727498 -0.10604295
000060 4f 6d ec bd fe 92 d9 3d db 59 10 3d 9b 1b b4 3c
       -0.115442865 0.1062374 0.035241943 0.02198582
000070 d2 0e a2 bd 1a 6f 1a 3d 2b 90 28 bd 20 db 96 3d
       -0.07912983 0.03770361 -0.041153114 0.073660135
000080 d3 1e a3 3d fb 39 d2 bd 58 fb 87 3d 09 fa d0 3d
       0.07964864 -0.10264965 0.06639737 0.102039404
000090 74 d9 f1 bc 2e 0e 70 3d 8d 39 61 bd d8 1d 85 3d
       -0.029522635 0.058607273 -0.054986525 0.06499833
0000a0 bd 87 ab 3d e0 48 6d bd b7 00 56 3d 92 47 1e 3d
       0.083754994 -0.057930827 0.052246775 0.038642474
0000b0 11 49 2d 3c 11 ef 48 bd a8 c7 87 3c 10 6a df 3c
       0.010576502 -0.049056116 0.016574696 0.027272254
0000c0 61 f0 7a 3d 52 0f 1f 3d df 0d 13 3d 02 0c 03 bb
       0.0612644 0.03883297 0.0359019 -0.001999617
0000d0 79 01 47 bd 3f a5 0e 3c 6c 3f 2f be 24 87 f5 bd
       -0.04858539 0.00870639 -0.17114037 -0.11988667
0000e0 b4 47 e9 3d cf 17 31 3d 55 4f cd bc 65 63 70 bd
       0.113906294 0.043235596 -0.025062243 -0.05868854
0000f0 7b 0a c3 bd 65 6f a3 3d b8 ca a1 3d cb b4 76 3c
       -0.09523483 0.07980231 0.07899994 0.015057753
000100 83 89 63 bd ba c8 62 bd ed fa 7d 3c e9 53 ca 3d
       -0.055551063 -0.05536721 0.01550172 0.09879286
000110 ea b8 da 3a c0 6e cb bc b5 8e cf 3d 36 4f 93 bb
       0.0016687189 -0.024833083 0.10134641 -0.0044955267
000120 73 d3 0e bc 2b 39 72 3d 97 e4 a1 3c 0a 9b 0d bd
       -0.008717406 0.05913655 0.01976232 -0.034571685
000130 c8 38 78 3c eb 6c 03 3d 9b 24 0e be 8b ab 73 3c
       0.015150256 0.032086294 -0.13881151 0.014872442
000140 61 66 06 3c cd b2 a6 bd 89 be b0 bc 2b 64 de bd
       0.00820312 -0.08139572 -0.02157523 -0.10858949
000150 a5 e3 c5 bd 54 f4 b3 ba c9 2d a0 3d b5 71 7f 3d
       -0.096625604 -0.0013729432 0.07821233 0.0623643
000160 b2 d3 e9 bd 1b f0 bc bd 37 f7 1e 3d 4a e3 1e be
       -0.11417331 -0.09225484 0.03880998 -0.15516391
000170 e6 48 6f bd c4 61 2e 3d 3e 39 92 3d f7 58 f2 3d
       -0.05841913 0.042573705 0.07139824 0.11833375
000180 e7 25 89 3d 2d 90 52 bd ce ed db bc 84 46 d0 3d
       0.066966824 -0.051407028 -0.026846793 0.101697
000190 2f 44 a1 bd f1 e9 11 be 28 6e c4 bd 1b 25 b5 bc
       -0.07874333 -0.14249398 -0.09591323 -0.02211242
0001a0 93 68 08 3e 77 d3 3b bc 81 ee 90 bd a6 4a bf bd
       0.13321142 -0.011463991 -0.07076741 -0.0934041
0001b0 ff f5 98 bd 7f 4e 18 3d fb ad 01 be d4 26 27 be
       -0.07468795 0.037184235 -0.12664025 -0.16323406
0001c0 05 c4 b1 3d 54 a8 5e bd d4 66 49 3d 1c ab 27 be
       0.08679966 -0.05435975 0.04917033 -0.16373867
0001d0 43 05 8f bd 78 06 12 bd 5a 25 02 bd dc 3d f3 bc
       -0.069834255 -0.0356507 -0.031773902 -0.029692583
0001e0 9b 6f 1f 3d 7b 4b 41 bd a7 41 94 bd 6e 8e 22 3d
       0.038924795 -0.047191124 -0.07239085 0.039686613
0001f0 12 68 87 bd 2f a1 89 3d 87 6d 2f 3d 63 c3 28 bc
       -0.06611647 0.067201965 0.042829063 -0.01030049
000200 8a fc 99 bd b0 16 f9 3c d4 48 9e bd c1 a6 ee bb
       -0.07518871 0.030406326 -0.077287346 -0.007283062
000210 9a e0 97 3d 70 f9 46 bd 31 25 1a bd ac 4b 9e 3d
       0.07415886 -0.048577726 -0.037633125 0.07729277
000220 f0 78 39 bd 9d c5 b9 3c 33 e8 a3 39 4c b2 86 3d
       -0.04528135 0.022677237 0.00031262785 0.06576976
000230 92 5b 9e bc 5e a4 48 bd fe c3 9e 3d 4f 3f ee 3d
       -0.019330774 -0.048984878 0.07752226 0.11633169
000240 6c cf e6 bd eb 26 d4 3d a5 f6 7c bd 99 37 8a bd
       -0.11270031 0.103589855 -0.061758656 -0.06748886
000250 b2 ee 29 3c 5f ad 18 3d 5d 3c 40 3d ca c9 d3 bd
       0.010371851 0.037274715 0.046932567 -0.103412226
000260 d0 60 3a bd ef de 8d 3d 9e ed 73 3c 6e 45 20 3d
       -0.045502484 0.06927287 0.014888195 0.039128713
000270 40 13 97 bd 4c 24 82 3d 94 6d 80 bd ea 5e 19 3b
       -0.073767185 0.06354579 -0.062709 0.002340252
000280 d5 23 03 3b ab 7c a5 bd 8a 5b 4d bb 8d f6 87 bd
       0.0020010371 -0.08080419 -0.003133508 -0.06638823
000290 45 af 45 bd 89 6b 79 bd 02 c4 58 3d a1 57 8f bc
       -0.048262853 -0.06089357 0.052921303 -0.01749784
0002a0 d2 3d ca bd 46 f4 90 3d 53 2c ac bd 9f c5 48 3d
       -0.098750725 0.070778415 -0.08406892 0.04901659
0002b0 ac e9 a2 bd fa 2e 98 bd b7 72 91 3d bf 5e 7d bd
       -0.079547256 -0.07430835 0.07101958 -0.061857935
0002c0 2e fb 72 bc 98 d8 01 3e 9d dd 00 3c b7 0a 07 3e
       -0.014830394 0.1268028 0.007865337 0.13187681
0002d0 b3 f3 a5 bd ef d2 eb 3d 4b 48 87 bd 0d 22 2c bd
       -0.081031226 0.11514842 -0.06605586 -0.04202466
0002e0 1f 5c f9 3c a1 a5 6c bb 3a 68 89 bd 42 37 98 bc
       0.030439435 -0.0036109465 -0.06709333 -0.018581036
0002f0 70 37 52 3d c6 27 fa bb fb ef f2 ba c1 bb 9a 3b
       0.0513224 -0.007634136 -0.0018534655 0.004722089
000300 31 bb 6b bd 38 76 aa 3c 11 58 a6 3c c9 f4 92 ba
       -0.057551567 0.020808324 0.020305665 -0.0011211868
000310 bb d7 77 3c fa 92 90 bc ac b8 03 3c dc 0e 42 bd
       0.015127118 -0.017648209 0.008039635 -0.047377452
000320 ff 93 7e 3d 40 81 1a 3c 68 7f ea 3d db 0a 98 bd
       0.06215286 0.00943023 0.11450082 -0.074239455
000330 b4 00 d6 bc 1d 5c 89 bd 49 0e d0 bc 5f d8 91 bd
       -0.026123382 -0.06707022 -0.025397437 -0.07121348
000340 7b 81 2f 3d 92 7f 23 bd 57 54 9d ba 7e 42 c1 bc
       0.04284809 -0.039916582 -0.0012003285 -0.023591276
000350 4c d2 17 be 7c 0b 6b 3d 2f 1a 6c 3d cd 77 15 3d
       -0.14826316 0.057384 0.057642158 0.036491204
000360 8e 81 61 3c 2c e1 b6 bc 05 3f 3e bd 24 3e 4b bc
       0.013763798 -0.022324167 -0.04644682 -0.012404952
000370 e2 44 91 bd 23 e4 e4 bd 25 37 03 be 20 4f 59 bd
       -0.070932165 -0.11176326 -0.12814005 -0.053053975
000380 46 db f4 bc 04 7b 17 be 74 7f 35 39 6f d6 3d 3d
       -0.029889714 -0.1479302 0.00017308985 0.046347078
000390 53 e6 d7 bd 35 e5 f7 bc ed 4e b8 bc da e8 d0 bd
       -0.10541978 -0.030260662 -0.022498572 -0.10200663
0003a0 d1 6a a2 3d 6e d4 83 3d f7 8a ad bc b1 43 b3 bd
       0.0793053 0.06437002 -0.021184428 -0.087531455
0003b0 7f c2 20 3e 30 33 fc 3d c0 bb c0 bd ed fa 82 bd
       0.15699194 0.12314451 -0.094108105 -0.063955165
0003c0 c2 58 37 3e 3f e8 d8 3c 40 15 02 bd 47 74 15 be
       0.17904952 0.026477931 -0.031758547 -0.14595138
0003d0 8c cc de 3d 21 df 7e 3c cb 04 8c bd 6e 56 4e 3d
       0.10878858 0.015556128 -0.06836852 0.050375395
0003e0 e0 a2 2d 3d 6e 45 00 be 34 f0 87 bd 77 63 2a 3e
       0.042391658 -0.12526485 -0.06637612 0.16639505
0003f0 89 74 56 3d ca 11 52 3d c2 40 cd bc 30 56 65 bc
       0.05235723 0.051286496 -0.025055293 -0.0139975995

fc.3.bias f4 [64]
000000 a0 e3 0a 3e e4 30 dd 3d 52 fa 43 3d 40 62 79 3d
       0.13563395 0.10800341 0.047846146 0.060884714
000010 31 cd 5a 3d 1b c6 39 3d cd 83 06 3e 8a fd 07 bd
       0.053418342 0.045354944 0.13136216 -0.033200778
000020 01 1b a1 3c 95 dd ec 3d 85 f8 91 3d 39 80 82 3d
       0.019666197 0.11565701 0.071274795 0.06372113
000030 26 d4 ca 3c ef eb 8d 3d b6 af 1c bd 9b ef 43 bc
       0.024759363 0.069297664 -0.03825351 -0.011958982
000040 26 38 d4 3c 55 c0 4c 3c 64 25 4a 3e a5 af d0 3d
       0.02590568 0.012497027 0.19740826 0.101897515
000050 dd 67 0a 3e f8 92 fb 3d f7 5b 7a 3d 80 25 f9 3d
       0.13516183 0.122838914 0.06112286 0.12165356
000060 06 2a e1 3b f9 cb 12 3e 4c de a1 3d 87 29 a9 3d
       0.0068714647 0.14335622 0.07903728 0.08259874
000070 ce 1f db bd 34 66 91 bd 87 51 ba 3c 53 f0 f6 3d
       -0.10699426 -0.07099572 0.022743953 0.12057557
000080 69 7b e9 3d dd 17 7b 3d 26 57 88 bb 0d 4b 42 3d
       0.11400492 0.061302055 -0.0041607795 0.047434855
000090 51 8f 21 bd 30 bc 26 bd 0b 29 02 3d ba 41 24 3c
       -0.039443318 -0.040706813 0.031777423 0.010025436
0000a0 ef 71 24 3e 4a a6 9c 3d e6 93 d1 bc d4 da 27 3d
       0.16059087 0.076489046 -0.025583219 0.040980175
0000b0 38 14 b2 3d 53 06 b2 3d 67 d9 1c 3d b9 f4 8b 3d
       0.08695263 0.086926125 0.03829327 0.068337865
0000c0 08 67 c7 3d dc b3 d6 3d 58 f8 0a 3e 94 c0 84 3d
       0.097364485 0.10483524 0.13571298 0.06482044
0000d0 e7 45 64 bc be 25 48 3d ae b9 96 3d 68 21 0d 3e
       -0.013932682 0.04886412 0.07359634 0.13782275
0000e0 06 48 27 3e 7a 9d 59 3d eb d4 67 3d de c5 f5 bc
       0.16336069 0.053128697 0.05659954 -0.030001577
0000f0 d3 80 6b 3d f0 68 ee 3d 63 22 af 3c 26 f5 a3 3d
       0.057495903 0.11641109 0.021378702 0.08005743

fc.6.weight f4 [10, 64]
000000 10 a9 b1 bc 18 34 ae bd 68 01 02 3e 78 b3 8c 3d
       -0.02168706 -0.0850603 0.12695849 0.068701684
000010 bb 53 e0 3d 2a 28 86 bd 7e 9c 28 be 13 d9 0b be
       0.1095347 -0.065506294 -0.16465947 -0.13657026
000020 e2 e3 f3 3d e2 bb b4 bd 98 8f 83 bc 5e 69 ac 3d
       0.119086996 -0.08824898 -0.016059682 0.08418535
000030 40 bf 69 3d bb 5e 73 bd 2c 5c d6 bc ae 8d ce 3d
       0.057067156 -0.059416514 -0.026166998 0.10085617
000040 27 d6 21 bd 81 a1 3c bd 3a 04 16 be b5 5a 58 3d
       -0.039510872 -0.04605246 -0.1465005 0.05282088
000050 51 1a 1f be e8 5b 8f bd f6 24 3a be ef b8 44 be
       -0.15537383 -0.069999516 -0.18178162 -0.19211172
000060 40 85 a8 3d d7 ef 38 be c4 27 1f be 23 56 57 be
       0.082285404 -0.18060242 -0.15542513 -0.21028952
000070 bf d6 f5 bd fa 37 f6 3d a0 2e 69 bd f7 4c 11 be
       -0.1200385 0.120223954 -0.05692923 -0.14189516
000080 c3 d6 f9 3d 06 e6 3c be 68 8e 0c 3e d2 7b ec 3c
       0.12199166 -0.18447122 0.13726199 0.028867636
000090 25 8e 0e be 08 05 29 be 04 d2 85 be 37 5d 0c 3e
       -0.13921411 -0.16505826 -0.26136792 0.13707434
0000a0 a6 6c 7a be ce 94 02 bd e7 82 02 3e 21 cf 9f bd
       -0.24455509 -0.031880192 0.12745248 -0.078031786
0000b0 f5 e6 57 3d f8 f6 eb bd ea e2 43 be 8a 4b b0 3d
       0.052710492 -0.11521715 -0.1912953 0.08608158
0000c0 35 93 fd bb e1 3b e9 3d 97 6b 34 be 58 71 bf bd
       -0.0077384957 0.11388374 -0.17619167 -0.093477905
0000d0 c0 1e 4d be f8 49 14 3e 56 64 0b be 13 80 e9 3d
       -0.20031261 0.14481342 -0.13612494 0.11401381
0000e0 1d 02 00 be 66 05 b1 3d da 24 bc bd c7 24 b9 3d
       -0.12500806 0.08643608 -0.091867164 0.09040218
0000f0 1c f7 ef bd 52 3b 99 3c 03 f1 8b 3d 55 f9 bb 3d
       -0.11717054 0.018705044 0.06833079 0.09178416
000100 3f 0d cd 3d b8 17 67 bd a3 45 3d be b8 aa 9a bc
       0.10012292 -0.056419104 -0.18483596 -0.018880233
000110 79 de 44 be 3a fb 7f bd 77 07 90 3d 6f f7 e6 bd
       -0.19225492 -0.062495448 0.07032674 -0.11277663
000120 b4 6f b0 bd 94 99 9f 3d ea f6 3d be 98 ac 17 be
       -0.08615056 0.077929646 -0.18551221 -0.14811933
000130 ae 20 79 be 83 49 c2 bd cd 05 f0 3d cb 29 f5 bd
       -0.24328873 -0.094866775 0.117198564 -0.11970862
000140 df 6b bd 3d 55 dc 85 bd ff 28 b6 3d 09 ca 94 3d
       0.092490904 -0.065361656 0.08894538 0.07265098
000150 e8 4d b0 3d 2a 5b 04 3e 75 d8 8a 3d cf 81 aa 3d
       0.086086094 0.12925401 0.06779567 0.0832554
000160 4c 40 f9 bd eb 71 56 3d 53 61 b7 3a 6e 86 b0 3d
       -0.12170467 0.052354734 0.0013990797 0.086193904
000170 9f 48 7f 3c d3 b8 6a be f9 9a da bd db f8 06 be
       0.015581279 -0.22922067 -0.1067409 -0.13180868
000180 1e 83 61 bd 4f a8 4d 3d 35 5d b4 3d 0d 03 32 be
       -0.055056684 0.05020934 0.0880684 -0.17383976
000190 7a 0a b3 3d 00 09 2b be 1e cb a4 bc 02 7b 19 be
       0.087422326 -0.16702652 -0.020116385 -0.1498833
0001a0 5c f1 d8 3d bc f7 f8 3d ab 79 47 3c 0b 08 0a be
       0.10592911 0.121566266 0.012175004 -0.1347963
0001b0 75 5b d1 3d 92 ed 30 be 86 ce c0 3d d4 0a 19 be
       0.10222522 -0.17278126 0.09414391 -0.14945537
0001c0 81 b3 2c be 52 bf 8f 3d 85 ba 0f 3c cd 7e 98 be
       -0.1686535 0.07018913 0.008772497 -0.2978424
0001d0 34 e4 b1 3d 1b 2e 12 3d 8b ec 88 bd 1f 2a ae 3d
       0.086861044 0.0356885 -0.06685742 0.08504128
0001e0 7b bc a7 3d 1a 97 7d bc 5b c1 e5 bd 49 b6 9a 3d
       0.08190247 -0.01547792 -0.1121852 0.075542994
0001f0 aa b5 01 be 86 3b a6 3d 0a 29 8a be fb 26 d9 bd
       -0.12666956 0.08116822 -0.26984435 -0.10603138
000200 82 c5 bd 3d 5d 2b ad 3d 96 4e 05 bd 59 35 b7 3d
       0.09266187 0.084555365 -0.03254565 0.08945722
000210 a0 9a 23 bc 8d 47 1b 3d 35 27 1b be 8f cd f8 3c
       -0.009985596 0.037910033 -0.15151675 0.030371455
000220 47 7c 9e 3d 32 2a cd bd 28 dd a5 3d a8 34 8c 3d
       0.07738548 -0.10017814 0.08098823 0.06845981
000230 1a 82 1a be 0c b5 aa bc 03 75 51 bd 96 24 d8 bd
       -0.15088692 -0.020838283 -0.05113698 -0.10553853
000240 31 a6 09 3e 91 ca ed 3d df 42 84 3d c7 d5 0d be
       0.13442303 0.11610902 0.06458067 -0.13851081
000250 08 72 3d be 77 e8 bc bd c7 24 10 3d d2 c5 00 3e
       -0.1850053 -0.09224027 0.035191324 0.12575462
000260 ab 51 8b bc eb 3b a8 3d ea d0 2b be fb 17 f3 3d
       -0.017006716 0.082145534 -0.16778913 0.11869808
000270 06 11 06 3e 58 bd b7 3c 8f 84 2f be 78 25 fb bd
       0.13092431 0.022429153 -0.17140411 -0.12263006
000280 45 a2 f2 3d 8b 08 15 3d 9f bf db 3d c1 09 7c be
       0.11847357 0.0363851 0.10729908 -0.24613096
000290 07 17 09 bd 9e aa 58 3d af 8a fe ba 15 b3 c5 bd
       -0.033469226 0.05289709 -0.0019419993 -0.09653298
0002a0 a0 ff 94 bd d9 81 e6 3c f4 6c e0 3d 3a 28 43 3d
       -0.07275319 0.028138088 0.10958281 0.047645785
0002b0 31 b6 3b be aa ff b3 bd 0a 10 92 bd 51 4c 64 3c
       -0.1833122 -0.087889984 -0.071319655 0.013934211
0002c0 16 b7 e3 3d 8b 05 c5 3d 5b d6 0f 3d 89 7e f6 bd
       0.11118905 0.09620198 0.035116535 -0.120358534
0002d0 ca 01 df 3d 8e 56 fb 3d 3d 6d ad 3d d2 07 3f be
       0.10889013 0.12272368 0.08468101 -0.18655327
0002e0 b7 85 f5 bd 37 36 70 3b 00 a5 3a be 41 7b 0b be
       -0.11988395 0.0036653408 -0.18227005 -0.13621236
0002f0 47 6b 52 bd ad d8 0d be 4f fb 4e be ec 01 b4 3d
       -0.05137184 -0.13852187 -0.20213054 0.08789429
000300 1e bc aa 3d c1 8e b8 3d f3 fe 10 be 94 ca b1 3d
       0.08336662 0.09011603 -0.14159755 0.08681217
000310 55 af 1d be 47 2b bb 3d ca ef 97 3c 78 7e e9 3d
       -0.15398915 0.09139114 0.018546958 0.11401075
000320 92 24 a2 3d 96 ff 99 3d 73 c4 1b be f2 2a f3 bd
       0.079171315 0.07519452 -0.15211658 -0.118734255
000330 dc 35 ff bd 63 61 f4 3d 80 f9 cf 3d 14 80 a3 3d
       -0.12461445 0.119326375 0.1015501 0.07983413
000340 f8 9f 2f bd 4c ea 17 be 51 e7 db bd 2f a3 5a be
       -0.042877167 -0.14835471 -0.107374795 -0.21351312
000350 06 57 92 3d f4 b3 98 be 27 89 30 be 89 6b c6 3d
       0.07145505 -0.29824793 -0.1723982 0.096884795
000360 0b 7c 96 3d 41 21 8b 3d 07 18 6c be 45 86 b7 3d
       0.07347878 0.06793452 -0.2305604 0.08961157
000370 5e 1c 50 3c 07 99 c4 3d 37 3f 76 3d 1e ba 08 be
       0.012702076 0.095995 0.06011888 -0.13352248
000380 f6 26 f4 bd 58 6b e3 3d f1 cc 32 be 2f 4a 8a bd
       -0.11921494 0.111044586 -0.17460991 -0.06752431
000390 47 2c c3 3d b1 8d bc bd ab a2 96 3d a2 9f c9 3d
       0.095299296 -0.09206713 0.07355245 0.09844901
0003a0 14 a3 4f bc 85 20 03 be a3 9c b5 bd 26 24 67 3d
       -0.012673158 -0.12805374 -0.08867767 0.05643096
0003b0 7b 09 b6 bd db e5 fd 3d f5 b7 1a be e0 34 52 3d
       -0.08888527 0.12397357 -0.15109237 0.051319957
0003c0 6b d7 47 3c c0 d5 da bd ad 97 89 bc ee 19 fb bd
       0.012197356 -0.10685301 -0.016795957 -0.12260805
0003d0 fd 0f d5 3d cf 5a 0c 3d be 79 57 bd f6 3a d7 bd
       0.1040344 0.03426629 -0.052606337 -0.10509293
0003e0 ae f0 1a be 09 8f 87 bd 43 7f 03 3e 49 c8 60 be
       -0.15130875 -0.06619079 0.12841515 -0.21951403
0003f0 6d 5e f5 3d a1 42 af bd 7c 55 86 be 38 a2 0c be
       0.11980901 -0.0855763 -0.26237094 -0.13733757

fc.6.bias f4 [10]
000000 ff f6 06 3e 50 72 55 3d 02 30 f9 bd 68 da 86 bd
       0.13180159 0.05211097 -0.1216736 -0.065846264
000010 49 75 4a bd 1d 40 7d 3d 2f 75 54 3c 7a b9 1b be
       -0.049428258 0.06182872 0.012967392 -0.15207472
000020 6f a0 22 3e cf 03 50 3d
       0.15881513 0.050784882
